…
hear=0.0, perspective=0.0, flipud=0.0, fliplr=0.5, mosaic=1.0, mixup=0.0, copy_paste=0.0
Comet: run 'pip install comet_ml' to automatically track and visualize YOLOv5 ðŸš€ runs in Comet
TensorBoard: Start with 'tensorboard --logdir runs/train', view at http://localhost:6006/
Downloading https://github.com/ultralytics/yolov5/releases/download/v7.0/yolov5m.pt to yolov5m.pt...
100% 40.8M/40.8M [00:00<00:00, 209MB/s]

Overriding model.yaml nc=80 with nc=1

                 from  n    params  module                                  arguments                     
  0                -1  1      5280  models.common.Conv                      [3, 48, 6, 2, 2]              
  1                -1  1     41664  models.common.Conv                      [48, 96, 3, 2]                
  2                -1  2     65280  models.common.C3                        [96, 96, 2]                   
  3                -1  1    166272  models.common.Conv                      [96, 192, 3, 2]               
  4                -1  4    444672  models.common.C3                        [192, 192, 4]                 
  5                -1  1    664320  models.common.Conv                      [192, 384, 3, 2]              
  6                -1  6   2512896  models.common.C3                        [384, 384, 6]                 
  7                -1  1   2655744  models.common.Conv                      [384, 768, 3, 2]              
  8                -1  2   4134912  models.common.C3                        [768, 768, 2]                 
  9                -1  1   1476864  models.common.SPPF                      [768, 768, 5]                 
 10                -1  1    295680  models.common.Conv                      [768, 384, 1, 1]              
 11                -1  1         0  torch.nn.modules.upsampling.Upsample    [None, 2, 'nearest']          
 12           [-1, 6]  1         0  models.common.Concat                    [1]                           
 13                -1  2   1182720  models.common.C3                        [768, 384, 2, False]          
 14                -1  1     74112  models.common.Conv                      [384, 192, 1, 1]              
 15                -1  1         0  torch.nn.modules.upsampling.Upsample    [None, 2, 'nearest']          
 16           [-1, 4]  1         0  models.common.Concat                    [1]                           
 17                -1  2    296448  models.common.C3                        [384, 192, 2, False]          
 18                -1  1    332160  models.common.Conv                      [192, 192, 3, 2]              
 19          [-1, 14]  1         0  models.common.Concat                    [1]                           
 20                -1  2   1035264  models.common.C3                        [384, 384, 2, False]          
 21                -1  1   1327872  models.common.Conv                      [384, 384, 3, 2]              
 22          [-1, 10]  1         0  models.common.Concat                    [1]                           
 23                -1  2   4134912  models.common.C3                        [768, 768, 2, False]          
 24      [17, 20, 23]  1     24246  models.yolo.Detect                      [1, [[10, 13, 16, 30, 33, 23], [30, 61, 62, 45, 59, 119], [116, 90, 156, 198, 373, 326]], [192, 384, 768]]
Model summary: 291 layers, 20871318 parameters, 20871318 gradients, 48.2 GFLOPs

Transferred 475/481 items from yolov5m.pt
AMP: checks passed âœ…
WARNING âš ï¸ --img-size 600 must be multiple of max stride 32, updating to 608
…
